mylog/policy.pth (torch, 184158 bytes, 24 tensors)

actor.sigma_param f4 [4, 1]
-0.5 -0.5 -0.5 -0.5
00000000: 0000 00bf 0000 00bf 0000 00bf 0000 00bf

actor.preprocess.model.model.0.weight f4 [128, 39]
-0.107661255 -0.31429783 -0.040219393 0.04924151 0.020368397 -0.017125793 -0.05732801 -0.11279566
-0.060674045 -0.22687623 0.13308427 -0.13592531 -0.15680999 -0.11960342 0.08540406 -0.025163688
-0.018411709 -0.11067879 -0.0066565545 0.1041219 0.0002485899 0.0074421256 0.23089392 -0.123770006
-0.2568466 -0.09209004 0.08405711 0.18206745 0.048492942 0.04534273 -0.017158706 0.0072965682
0.017292324 -0.15130538 0.06509802 -0.20934476 -0.02868652 -0.019158753 0.13209912 -0.19684371
-0.015353973 0.10533302 -0.0133132 -0.16910726 -0.17927597 0.123582095 0.24943902 -0.14121558
-0.16307144 0.02521561 0.09259295 0.21332593 -0.08024391 0.095692 -0.007957138 0.0727647
-0.058514096 -0.06475721 0.02296432 -0.0030061724 -0.3063124 0.117470555 -0.044685673 -0.17112856
-0.043181647 -0.03506517 0.04934094 -0.08085948 -0.08373068 0.094399855 0.15445969 0.03192093
0.22311601 -0.047415547 -0.16169688 0.03713885 -0.16710874 0.08235833 0.005881189 0.065110214
0.1854676 0.012680655 0.056552984 0.13052523 -0.11384423 -0.31037125 -0.070301615 -0.018053846
0.003990037 -0.042723663 -0.13417345 0.07619898 -0.17042062 -0.08821383 -0.19362181 -0.10969373
0.16746645 0.007677446 -0.16200736 -0.2324288 -0.08183768 0.1743021 -0.0833004 -0.045790274
0.21080197 0.16107632 0.16037734 0.032749202 -0.009887687 0.08119429 -0.13373147 -0.08170091
-0.06160538 0.049417675 0.05583808 -0.2916875 -0.4208342 -0.010235841 -0.06605361 -0.017671352
0.122338906 -0.14642106 0.16243836 -0.051184982 0.16780274 -0.041499626 0.16914319 0.0635685
-0.17047049 -0.0463117 -0.0008761449 -0.1496104 -0.1025721 0.08064137 -0.23947756 0.011993992
-0.28750753 -0.10316742 -0.026556212 -0.17801884 -0.054943632 -0.049936175 -0.045212436 -0.0564374
0.10361887 0.13768436 -0.018796613 -0.07681084 0.059587352 -0.14262724 0.22053888 0.05478957
-0.101348996 0.057619702 -0.048189174 -0.32571253 0.12266527 0.05767038 0.086362086 0.11386494
0.11243202 0.07955742 -0.1333953 0.25422332 0.039073344 -0.019494781 0.03380025 -0.11837311
-0.1887064 0.06634703 -0.11606832 -0.08376985 0.016225426 0.11520127 0.017486287 0.058726173
0.16479957 -0.13352963 0.096855834 0.29089555 -0.22046085 0.14957148 -0.20037374 -0.29192236
0.034150317 -0.1147994 0.07164205 0.07126027 -0.10051699 0.13737716 0.0144238705 -0.017441103
0.10720036 0.09516111 0.10446598 -0.11346127 0.044477742 0.11656787 -0.069999136 0.011906869
0.041861083 0.05049559 -0.06015199 -0.053487204 0.062498488 -0.012197896 0.096227795 0.007148729
0.25705856 0.071058 -0.20925467 0.1242677 -0.040236704 0.24578287 -0.13514072 0.25133303
-0.1564586 0.09571628 0.08188339 0.04109917 -0.06324994 0.14311813 0.008311585 0.079864666
0.04525188 0.07766239 0.028116807 -0.07375232 0.09106125 0.06871961 0.05066244 0.09159514
-0.135694 0.19745353 0.18350233 -0.2148351 0.092321135 -0.03171536 0.013175573 0.08008785
0.14692761 0.11461244 -0.19190837 -0.103578374 -0.16021842 0.18767509 -0.081607826 -0.04275707
0.013107516 0.041405804 -0.07559823 -0.02464618 -0.0358709 -0.0733972 -0.09813426 0.13750583
00000000: 817d dcbd a5eb a0be 17bd 24bd 77b1 493d
00000010: a0db a63c 644b 8cbc c7d0 6abd 6901 e7bd
00000020: 5985 78bd 3e52 68be 3e47 083e 0130 0bbe
00000030: cc92 20be a3f2 f4bd 53e8 ae3d 1424 cebc
00000040: 27d4 96bc 90ab e2bd 3a1f dabb dd3d d53d
00000050: 2c55 8239 13dd f33b 756f 6c3e 217b fdbd
00000060: 6681 83be b499 bcbd 2226 ac3d e46f 3a3e
00000070: 89a0 463d 4cb9 393d 6a90 8cbc 0d18 ef3b
00000080: a2a8 8d3c ccef 1abe 1c52 853d 795e 56be
00000090: feff eabc d1f2 9cbc fe44 073e 6691 49be
000000a0: 3b8f 7bbc d7b8 d73d 9c1f 5abc 742a 2dbe
000000b0: 1f94 37be 9c18 fd3d f16c 7f3e d19a 10be
000000c0: 33fc 26be f890 ce3c 5fa1 bd3d 1d72 5a3e
000000d0: eb56 a4bd 2bfa c33d a85e 02bc a905 953d
000000e0: 7aac 6fbd 6e9f 84bd ab1f bc3c 3403 45bb
000000f0: fbd4 9cbe 6794 f03d 5308 37bd 533c 2fbe
00000100: 3ddf 30bd 7fa0 0fbd ba19 4a3d a899 a5bd
00000110: fe7a abbd b654 c13d ae2a 1e3e 85bf 023d
00000120: 8678 643e ce36 42bd de93 25be e81e 183d
00000130: 8e1e 2bbe 7cab a83d fdb6 c03b 8158 853d
00000140: 38eb 3d3e 86c2 4f3c 1aa4 673d 68a8 053e
00000150: 2a27 e9bd fbe8 9ebe 4bfa 8fbd a9e5 93bc
00000160: dbbe 823b 02ff 2ebd c464 09be 360e 9c3d
00000170: be82 2ebe 74a9 b4bd cc44 46be 1ba7 e0bd
00000180: 537c 2b3e 1693 fb3b 42e5 25be d101 6ebe
00000190: 839a a7bd 407c 323e 6699 aabd 958e 3bbd
000001a0: 79dc 573e 31f1 243e f539 243e 0724 063d
000001b0: f7ff 21bc 3149 a63d e7f0 08be cf52 a7bd
000001c0: ec55 7cbd 306a 4a3d 78b6 643d 1058 95be
000001d0: 9577 d7be 3bb4 27bc 1d47 87bd 83c3 90bc
000001e0: d28c fa3d 67ef 15be 3e56 263e 58a7 51bd
000001f0: 7bd4 2b3e 83fb 29bd df33 2d3e 3430 823d
00000200: d18f 2ebe 56b1 3dbd 17ad 65ba 7833 19be
00000210: 5211 d2bd 4d27 a53d 9b39 75be 7382 443c
00000220: 3034 93be 7149 d3bd 6a8c d9bc 924a 36be
00000230: 930c 61bd e089 4cbd ad30 39bd e72a 67bd
00000240: 2136 d43d 21fd 0c3e 5bfb 99bc 004f 9dbd
00000250: de11 743d e00c 12be f2d4 613e 076b 603d
00000260: 1090 cfbd a302 6c3d 0362 45bd cbc3 a6be
00000270: ee37 fb3d c737 6c3d 9bde b03d 0632 e93d
00000280: c242 e63d 00ef a23d c798 08be 8f29 823e
00000290: 5f0b 203d 85b3 9fbc 2272 0a3d 9a6d f2bd
000002a0: 403c 41be f4e0 873d 3ab5 edbd 878f abbd
000002b0: 2feb 843c a5ee eb3d 673f 8f3c db8a 703d
000002c0: 38c1 283e febb 08be 5a5c c63d 43f0 943e
000002d0: 7dc0 61be 4429 193e c62e 4dbe d976 95be
000002e0: 34e1 0b3d f31b ebbd 11b9 923d e8f0 913d
000002f0: dadb cdbd 99ac 0c3e 1952 6c3c a5e0 8ebc
00000300: dd8b db3d d4e3 c23d 42f2 d53d 625e e8bd
00000310: 4b2e 363d 23bb ee3d b55b 8fbd 0715 433c
00000320: 8776 2b3d 77d4 4e3d ef61 76bd 6615 5bbd
00000330: 6afe 7f3d afd9 47bc 1413 c53d e33f ea3b
00000340: 2e9d 833e db86 913d db46 56be 1080 fe3d
00000350: 3ecf 24bd 81ae 7b3e 5462 0abe b9ae 803e
00000360: af36 20be e606 c43d 7bb2 a73d 9a57 283d
00000370: 2f89 81bd 8f8d 123e 502d 083c 1690 a33d
00000380: 095a 393d 760d 9f3d 3855 e63c 750b 97bd
00000390: 527e ba3d debc 8c3d 6b83 4f3d 3c96 bb3d
000003a0: 5ef3 0abe 4231 4a3e 09e8 3b3e bcfd 5bbe
000003b0: dd12 bd3d f7e7 01bd 5cde 573c 1905 a43d
000003c0: 3174 163e edb9 ea3d a183 44be e620 d4bd
000003d0: 4c10 24be e62d 403e 0122 a7bd 0a22 2fbd
000003e0: e8c0 563c 2299 293d 3fd3 9abd c9e6 c9bc
000003f0: 5ded 12bd 4551 96bd 9dfa c8bd 54ce 0c3e

actor.preprocess.model.model.0.bias f4 [128]
0.0 0.0 0.0 0.0 0.0 0.0 0.0 0.0
0.0 0.0 0.0 0.0 0.0 0.0 0.0 0.0
0.0 0.0 0.0 0.0 0.0 0.0 0.0 0.0
0.0 0.0 0.0 0.0 0.0 0.0 0.0 0.0
0.0 0.0 0.0 0.0 0.0 0.0 0.0 0.0
0.0 0.0 0.0 0.0 0.0 0.0 0.0 0.0
0.0 0.0 0.0 0.0 0.0 0.0 0.0 0.0
0.0 0.0 0.0 0.0 0.0 0.0 0.0 0.0
0.0 0.0 0.0 0.0 0.0 0.0 0.0 0.0
0.0 0.0 0.0 0.0 0.0 0.0 0.0 0.0
0.0 0.0 0.0 0.0 0.0 0.0 0.0 0.0
0.0 0.0 0.0 0.0 0.0 0.0 0.0 0.0
0.0 0.0 0.0 0.0 0.0 0.0 0.0 0.0
0.0 0.0 0.0 0.0 0.0 0.0 0.0 0.0
0.0 0.0 0.0 0.0 0.0 0.0 0.0 0.0
0.0 0.0 0.0 0.0 0.0 0.0 0.0 0.0
00000000: 0000 0000 0000 0000 0000 0000 0000 0000
00000010: 0000 0000 0000 0000 0000 0000 0000 0000
00000020: 0000 0000 0000 0000 0000 0000 0000 0000
00000030: 0000 0000 0000 0000 0000 0000 0000 0000
00000040: 0000 0000 0000 0000 0000 0000 0000 0000
00000050: 0000 0000 0000 0000 0000 0000 0000 0000
00000060: 0000 0000 0000 0000 0000 0000 0000 0000
00000070: 0000 0000 0000 0000 0000 0000 0000 0000
00000080: 0000 0000 0000 0000 0000 0000 0000 0000
00000090: 0000 0000 0000 0000 0000 0000 0000 0000
000000a0: 0000 0000 0000 0000 0000 0000 0000 0000
000000b0: 0000 0000 0000 0000 0000 0000 0000 0000
000000c0: 0000 0000 0000 0000 0000 0000 0000 0000
000000d0: 0000 0000 0000 0000 0000 0000 0000 0000
000000e0: 0000 0000 0000 0000 0000 0000 0000 0000
000000f0: 0000 0000 0000 0000 0000 0000 0000 0000
00000100: 0000 0000 0000 0000 0000 0000 0000 0000
00000110: 0000 0000 0000 0000 0000 0000 0000 0000
00000120: 0000 0000 0000 0000 0000 0000 0000 0000
00000130: 0000 0000 0000 0000 0000 0000 0000 0000
00000140: 0000 0000 0000 0000 0000 0000 0000 0000
00000150: 0000 0000 0000 0000 0000 0000 0000 0000
00000160: 0000 0000 0000 0000 0000 0000 0000 0000
00000170: 0000 0000 0000 0000 0000 0000 0000 0000
00000180: 0000 0000 0000 0000 0000 0000 0000 0000
00000190: 0000 0000 0000 0000 0000 0000 0000 0000
000001a0: 0000 0000 0000 0000 0000 0000 0000 0000
000001b0: 0000 0000 0000 0000 0000 0000 0000 0000
000001c0: 0000 0000 0000 0000 0000 0000 0000 0000
000001d0: 0000 0000 0000 0000 0000 0000 0000 0000
000001e0: 0000 0000 0000 0000 0000 0000 0000 0000
000001f0: 0000 0000 0000 0000 0000 0000 0000 0000

actor.preprocess.model.model.2.weight f4 [128, 128]
-0.036465958 -0.019362295 0.017387949 -0.25269455 -0.15632984 0.12558061 0.20560916 -0.0022157445
0.15382798 -0.0006598585 0.06910654 -0.23510626 -0.011536334 -0.2097392 -0.21719219 0.0033851976
0.0046523586 -0.26686892 -0.11973997 0.2866896 0.07584317 0.017992826 -0.051805876 0.08439416
0.16512124 -0.24274409 0.053901155 -0.20312183 0.038986385 0.044787515 0.08226603 -0.12407145
0.28281546 -0.0047903513 -0.408681 -0.117491275 0.053893995 0.031383175 -0.15913716 0.059442066
-0.055021957 -0.094182 -0.037000295 0.032901317 -0.14638534 -0.028291134 -0.22981487 0.027687881
-0.02069797 0.009006512 0.07221358 0.07143903 -0.03335668 0.13996224 -0.10958741 -0.11426716
0.018228387 0.12800698 0.060809493 0.17091009 -0.16045123 0.13741027 -0.20141487 0.08124814
0.052816935 -0.015562457 -0.0066312742 0.21498768 0.037745625 0.05217298 -0.23276488 0.04970928
0.14575829 0.07533514 -0.095785275 -0.05976027 -0.053536993 0.27869827 0.06469638 -0.008759115
0.009876714 -0.049214296 -0.097328365 0.10608377 -0.017313248 0.038135715 0.07988327 -0.118444435
-0.039581057 -0.10508328 0.064147316 -0.12159437 0.060328715 -0.03876936 -0.14598298 0.022528784
-0.07354402 0.0643773 -0.26910377 0.065224715 -0.120179534 -0.040114548 0.02541633 0.061876725
0.17071885 0.2522613 0.07794612 -0.013015842 -0.07897762 -0.10272837 0.11993187 0.09294999
-0.088875934 0.016469663 -0.124181665 0.10394817 -0.009935356 -0.017831625 0.010749784 0.0132096745
-0.034326058 0.18496162 0.06505551 -0.1668966 0.034772016 -0.15680395 0.1635758 -0.12654097
0.11651482 0.014803737 -0.21605541 -0.09912526 -0.15713164 0.07555628 -0.033804 -0.14823757
-0.15305118 0.18448937 -0.18597682 0.19922276 -0.097350165 0.011524679 -0.10240578 -0.08462218
-0.065344304 0.12493469 0.08784889 0.05843422 -0.07055939 -0.18992014 -0.028218055 0.1717289
0.17695889 0.04376595 0.053621385 -0.031137781 -0.14332746 -0.23375122 0.13620205 -0.098417856
0.097999156 -0.06375452 -0.07592616 0.28736365 -0.21245569 -0.11775412 -0.1396749 -0.011000872
0.06619289 0.036643997 0.08992991 -0.014411984 0.07594131 0.14689434 -0.0901458 0.0032034346
-0.039476834 0.010386005 0.01536383 -0.088042475 0.10817779 -0.05156911 0.010698846 0.052753013
-0.019664982 0.12000104 0.06953636 -0.21484657 0.039907355 -0.27415627 -0.15965381 0.18065204
0.0063927537 -0.0037865664 0.05792119 -0.02589468 -0.19950926 0.17037997 0.03712658 0.31960034
0.021930452 -0.02104572 0.03870122 0.17864685 -0.3173224 -0.11383636 -0.010540018 -0.20124859
0.17453316 -0.065130256 -0.13480166 0.12357702 0.13129538 0.12972966 -0.080253944 0.08572122
0.10462302 -0.038708217 0.19278145 -0.04250813 -0.019716095 0.08235074 0.013906966 0.097496636
0.06304474 0.13670358 0.02477211 0.071309984 -0.034065593 -0.048555154 0.22991179 0.09125029
0.22286278 -0.1297595 0.048190642 -0.05196394 0.25724524 0.08638628 -0.0071353153 0.11501216
-0.022444809 0.040471368 -0.1738518 0.032870088 0.088564456 -0.20590982 0.005638925 -0.09014104
-0.091045655 0.04379354 -0.2301063 -0.12865427 0.0137804095 0.10684395 -0.08170989 0.16110943
00000000: 545d 15bd ad9d 9ebc 2c71 8e3c 2e61 81be
00000010: ee14 20be 3498 003e 358b 523e 0636 11bb
00000020: 1585 1d3e 5bfa 2cba bb87 8d3d b2bf 70be
00000030: e402 3dbc dfc5 56be a167 5ebe 31da 5d3b
00000040: d072 983b 0ba3 88be 3b3a f5bd fbc8 923e
00000050: aa53 9b3d b165 933c 6632 54bd d8d6 ac3d
00000060: 8b15 293e e891 78be 75c7 5c3d 2bff 4fbe
00000070: 30b0 1f3d 1d73 373d 187b a83d 2c19 febd
00000080: 30cd 903e 61f8 9cbb a33e d1be 449f f0bd
00000090: f3bf 5c3d a58b 003d daf4 22be 8679 733d
000000a0: b45e 61bd 7ee2 c0bd 9f8d 17bd 88c3 063d
000000b0: 0ae6 15be cfc2 e7bc 9754 6bbe b2d1 e23c
000000c0: ca8e a9bc 0d90 133c b7e4 933d a04e 923d
000000d0: 04a1 08bd 4352 0f3e 5d6f e0bd e704 eabd
000000e0: b353 953c 4314 033e 6013 793d 0e03 2f3e
000000f0: 544d 24be 47b5 0c3e b33f 4ebe 6d65 a63d
00000100: 9256 583d adf9 7ebc 294b d9bb bb25 5c3e
00000110: 289b 1a3d 56b3 553d eb59 6ebe f59b 4b3d
00000120: a941 153e 4f49 9a3d 122b c4bd 2fc7 74bd
00000130: 9b49 5bbd 8ab1 8e3e 897f 843d 6482 0fbc
00000140: f1d1 213c ee94 49bd 1854 c7bd 7342 d93d
00000150: 83d4 8dbc 3234 1c3d d799 a33d ff92 f2bd
00000160: bf1f 22bd e735 d7bd ab5f 833d 7806 f9bd
00000170: 3e1b 773d 9fcc 1ebd 907c 15be 498e b83c
00000180: 3f9e 96bd 3fd8 833d f8c7 89be 8994 853d
00000190: b020 f6bd 274f 24bd e835 d03c 7372 7d3d
000001a0: ecd0 2e3e 6528 813e 37a2 9f3d 6640 55bc
000001b0: 05bf a1bd 4063 d2bd d79e f53d 905c be3d
000001c0: 9604 b6bd 63eb 863c f552 febd c7e2 d43d
000001d0: e7c7 22bc a113 92bc dd1f 303c 646d 583c
000001e0: 7b99 0cbd 9466 3d3e d33b 853d f1e6 2abe
000001f0: 1a6d 0e3d 3791 20be 6a80 273e f593 01be
00000200: 529f ee3d 608b 723c a13d 5dbe 2f02 cbbd
00000210: 1ee7 20be 40bd 9a3d 1076 0abd 97cb 17be
00000220: 73b9 1cbe c8ea 3c3e b570 3ebe 0d01 4c3e
00000230: 865f c7bd 02d2 3c3c 1fba d1bd 654e adbd
00000240: 3cd3 85bd c2dd ff3d 1eea b33d b858 6f3d
00000250: 7181 90bd 6d7a 42be 8d29 e7bc b3d9 2f3e
00000260: b634 353e ed43 333d 19a2 5b3d a914 ffbc
00000270: 6fc4 12be 7b5c 6fbe 8d78 0b3e 4d8f c9bd
00000280: c8b3 c83d bb91 82bd 2d7f 9bbd 5421 933e
00000290: fc8d 59be 1229 f1bd f006 0fbe 003d 34bc
000002a0: 2390 873d 0418 163d 2c2d b83d 3e20 6cbc
000002b0: 1e87 9b3d 786b 163e 5c9e b8bd b7f0 513b
000002c0: 76b2 21bd 102a 2a3c 93b8 7b3c 9d4f b4bd
000002d0: 518c dd3d 223a 53bd 364a 2f3c 8b13 583d
000002e0: 7518 a1bc 1bc3 f53d 1469 8e3d bd00 5cbe
000002f0: e575 233d 365e 8cbe 4a7c 23be d9fc 383e
00000300: 4e7a d13b 0b28 78bb c53e 6d3d 1421 d4bc
00000310: 284c 4cbe 1678 2e3e 0a12 183d a8a2 a33e
00000320: 7ea7 b33c 1368 acbc 2c85 1e3d 33ef 363e
00000330: 1578 a2be 0a23 e9bd 0ab0 2cbc 1c14 4ebe
00000340: d2b8 323e 0363 85bd 7209 0abe f315 fd3d
00000350: 4c72 063e dad7 043e 2e5c a4bd 9b8e af3d
00000360: 9844 d63d 828c 1ebd 8068 453e 011d 2ebd
00000370: a683 a1bc 81a7 a83d 0bda 633c 51ac c73d
00000380: 9a1d 813d 06fc 0b3e e1ee ca3c f80a 923d
00000390: 5d88 0bbd c5e1 46bd ff6d 6b3e 6fe1 ba3d
000003a0: 2436 643e addf 04be 8d63 453d 24d8 54bd
000003b0: a6b5 833e 4aeb b03d 5dcf e9bb 7f8b eb3d
000003c0: 2dde b7bc 4ec5 253d 3506 32be c9a2 063d
000003d0: 4861 b53d 06da 52be bbc6 b83b de9b b8bd
000003e0: 2576 babd db60 333d fca0 6bbe f2bd 03be
000003f0: 3ac7 613c 00d1 da3d 8457 a7bd dff9 243e

actor.preprocess.model.model.2.bias f4 [128]
0.0 0.0 0.0 0.0 0.0 0.0 0.0 0.0
0.0 0.0 0.0 0.0 0.0 0.0 0.0 0.0
0.0 0.0 0.0 0.0 0.0 0.0 0.0 0.0
0.0 0.0 0.0 0.0 0.0 0.0 0.0 0.0
0.0 0.0 0.0 0.0 0.0 0.0 0.0 0.0
0.0 0.0 0.0 0.0 0.0 0.0 0.0 0.0
0.0 0.0 0.0 0.0 0.0 0.0 0.0 0.0
0.0 0.0 0.0 0.0 0.0 0.0 0.0 0.0
0.0 0.0 0.0 0.0 0.0 0.0 0.0 0.0
0.0 0.0 0.0 0.0 0.0 0.0 0.0 0.0
0.0 0.0 0.0 0.0 0.0 0.0 0.0 0.0
0.0 0.0 0.0 0.0 0.0 0.0 0.0 0.0
0.0 0.0 0.0 0.0 0.0 0.0 0.0 0.0
0.0 0.0 0.0 0.0 0.0 0.0 0.0 0.0
0.0 0.0 0.0 0.0 0.0 0.0 0.0 0.0
0.0 0.0 0.0 0.0 0.0 0.0 0.0 0.0
00000000: 0000 0000 0000 0000 0000 0000 0000 0000
00000010: 0000 0000 0000 0000 0000 0000 0000 0000
00000020: 0000 0000 0000 0000 0000 0000 0000 0000
00000030: 0000 0000 0000 0000 0000 0000 0000 0000
00000040: 0000 0000 0000 0000 0000 0000 0000 0000
00000050: 0000 0000 0000 0000 0000 0000 0000 0000
00000060: 0000 0000 0000 0000 0000 0000 0000 0000
00000070: 0000 0000 0000 0000 0000 0000 0000 0000
00000080: 0000 0000 0000 0000 0000 0000 0000 0000
00000090: 0000 0000 0000 0000 0000 0000 0000 0000
000000a0: 0000 0000 0000 0000 0000 0000 0000 0000
000000b0: 0000 0000 0000 0000 0000 0000 0000 0000
000000c0: 0000 0000 0000 0000 0000 0000 0000 0000
000000d0: 0000 0000 0000 0000 0000 0000 0000 0000
000000e0: 0000 0000 0000 0000 0000 0000 0000 0000
000000f0: 0000 0000 0000 0000 0000 0000 0000 0000
00000100: 0000 0000 0000 0000 0000 0000 0000 0000
00000110: 0000 0000 0000 0000 0000 0000 0000 0000
00000120: 0000 0000 0000 0000 0000 0000 0000 0000
00000130: 0000 0000 0000 0000 0000 0000 0000 0000
00000140: 0000 0000 0000 0000 0000 0000 0000 0000
00000150: 0000 0000 0000 0000 0000 0000 0000 0000
00000160: 0000 0000 0000 0000 0000 0000 0000 0000
00000170: 0000 0000 0000 0000 0000 0000 0000 0000
00000180: 0000 0000 0000 0000 0000 0000 0000 0000
00000190: 0000 0000 0000 0000 0000 0000 0000 0000
000001a0: 0000 0000 0000 0000 0000 0000 0000 0000
000001b0: 0000 0000 0000 0000 0000 0000 0000 0000
000001c0: 0000 0000 0000 0000 0000 0000 0000 0000
000001d0: 0000 0000 0000 0000 0000 0000 0000 0000
000001e0: 0000 0000 0000 0000 0000 0000 0000 0000
000001f0: 0000 0000 0000 0000 0000 0000 0000 0000

actor.mu.model.0.weight f4 [4, 128]
-3.763039e-05 0.0007885543 0.0002819804 0.00032314204 0.0005814238 0.002992346 0.0004605712 -0.0013446597
0.0007438272 7.185739e-05 0.0002659113 -0.0007131072 -0.0013489928 0.00174925 0.0011877832 0.00027317047
-0.0006563617 -0.00061249605 -0.00041725906 0.0016910868 0.0011654348 -0.001906187 0.00042423414 0.0014764586
-0.0027612709 0.0015794592 -0.0021697215 -0.0008303215 1.2795877e-05 -0.0018261427 0.00022225597 1.1972056e-05
0.0004524482 -0.00070930494 -0.0026948988 -0.0013408082 0.00013022425 0.00040682591 0.0011913076 -0.00088831125
-0.0010056993 0.0010015675 -0.0025479777 -0.0009011661 0.0012252557 -0.00085048296 0.0002476733 0.00023564573
-0.0010608608 -0.001521315 -0.0019243711 -0.0023236577 0.0014663428 -7.3659954e-05 -0.0012386256 0.001472891
0.0019119665 -3.6993297e-05 -0.0005640222 -0.0005597226 -0.000462396 0.002150649 -0.00033695158 -4.578943e-06
8.602272e-05 -0.0018880183 -0.0001345904 -0.00040044796 -0.0034981035 0.0015237756 -0.0012002039 7.2511306e-05
-0.003274412 -0.0033478332 0.0002094083 0.001144408 0.0014606584 0.000750061 0.0007797357 0.00033706415
0.00039535842 0.0008909929 0.00036158072 -0.00073746993 7.4300435e-05 -0.002319783 0.0012580935 0.0002693832
0.0017307877 -9.1374284e-05 0.0019728919 0.000363672 0.00073366245 0.0008170998 -0.0014996355 -0.00055423606
0.0005142084 0.0007182583 0.00021112521 0.0008725102 -0.001073168 -0.00015270295 -0.0023254785 -0.00049127993
0.00019757684 0.00036590136 0.0011386124 -0.0011219975 -0.00012294589 -0.0006481479 -0.0015025286 -0.0014439502
-0.0015278716 -0.0009603177 0.0003973608 0.00056754367 0.00037294533 0.0017845107 0.0009641385 0.0005859025
0.00047840184 -0.0016770072 4.455087e-05 0.0010467549 -0.0014349177 -0.00073267496 -0.0011230671 0.0008151929
-0.0013001388 -0.0019462585 0.00057812704 0.0006050929 -0.00013264715 -0.0016960631 0.00022760908 0.00010531257
0.0006207142 -0.0026166323 0.003004301 0.0018120741 0.0004265636 0.00037949698 -5.0457897e-06 -0.00050691364
-0.0011758023 0.00088613085 0.0014366627 -0.0012191146 -0.0022544896 0.00049908663 -1.7175646e-05 0.0004257375
0.0011000516 -0.00011109871 -4.1948533e-05 0.0013593938 -0.0012589033 -0.00038444824 -0.001057211 -0.0013190369
-0.0007209206 -0.0004498467 0.00027999652 0.0012351428 0.00015793671 -0.0014055877 -0.00010110203 -0.0013973915
-0.0024333592 -0.0005510759 0.00059769157 -0.00035503498 0.0017128986 -0.0008013688 -0.0031213888 -0.0011518784
-0.0024184086 -3.6665374e-06 -0.001222765 -0.00076417363 0.0027366527 0.00040716774 -5.0836865e-05 -0.00035415465
-0.00018430283 -0.00072976155 -0.0005329845 0.0015565541 0.00040646037 0.0015366153 0.0017319667 -0.0017795807
0.0016845525 0.0010205251 0.00091562764 0.0009789974 0.0010924643 0.0003326148 0.0004832383 -0.0008723353
-0.000115278875 0.00026429148 0.0020370067 -0.0011096905 0.00063585443 -0.00043560358 -0.000883561 0.0010241343
-0.00028359375 0.0012646554 0.0001413305 -0.00051723514 0.0028833621 -0.000564203 0.00013102473 0.0012803684
8.9854504e-05 0.00078004494 0.002022388 0.0016258222 0.0017394437 -0.00012355945 0.00042502524 0.0008678834
0.00035142343 0.0013440382 0.0007115089 -0.0010422319 -0.00028181705 0.00029954914 -0.00026744313 -0.0019944503
0.0021138422 0.0014796556 0.00030144324 -0.0016905762 -0.00039145164 0.0011806459 0.0004554005 -0.0010362724
0.0011356205 -0.0008820394 -0.0003467913 0.0017496967 0.0039752303 0.0006220434 0.00084025174 -0.0002652587
0.00023232933 0.00010546694 -0.0017849294 0.0002574367 0.0027588967 0.0017556875 0.00070556515 -0.0004264102
00000000: 53d5 1db8 fcb6 4e3a c5d6 9339 646b a939
00000010: b16a 183a 3c1b 443b d278 f139 4b3f b0ba
00000020: 66fd 423a 24b2 9638 036a 8b39 d0ef 3aba
00000030: b0d0 b0ba 1747 e53a 64af 9b3a 5238 8f39
00000040: b00f 2cba ea8f 20ba 90c3 dab9 75a7 dd3a
00000050: 81c1 983a 06d9 f9ba be6b de39 bb85 c13a
00000060: 70f6 34bb db05 cf3a e331 0ebb efa9 59ba
00000070: e0ad 5637 2e5b efba 620d 6939 97db 4837
00000080: 9236 ed39 a6f0 39ba e69c 30bb 0fbe afba
00000090: ce8c 0839 404b d539 a625 9c3a 8fdd 68ba
000000a0: abd1 83ba 0747 833a f9fb 26bb 3c3c 6cba
000000b0: c298 a03a f2f2 5eba 26da 8139 ab17 7739
000000c0: 950c 8bba dc66 c7ba 2e3b fcba 8248 18bb
000000d0: 4d32 c03a e379 9ab8 6159 a2ba 050e c13a
000000e0: f39a fa3a 4029 1bb8 e4da 13ba 59ba 12ba
000000f0: be6d f2b9 e7f1 0c3b e0a8 b0b9 d2a4 99b6
00000100: 1967 b438 6277 f7ba d620 0db9 37f3 d1b9
00000110: 7040 65bb 6db9 c73a 2950 9dba 3611 9838
00000120: 8497 56bb 5267 5bbb 9d94 5b39 f6ff 953a
00000130: 9073 bf3a be9f 443a 2d67 4c3a fcb7 b039
00000140: 1c48 cf39 8591 693a 8b92 bd39 c552 41ba
00000150: bed1 9b38 8007 18bb 9de6 a43a 003c 8d39
00000160: 99db e23a 32a0 bfb8 a24b 013b 3bab be39
00000170: 4153 403a a432 563a 6b8f c4ba 274a 11ba
00000180: f1cb 063a 8049 3c3a 7e61 5d39 2bb9 643a
00000190: 8ba9 8cba e31e 20b9 0e67 18bb 3dc9 00ba
000001a0: a12c 4f39 73d6 bf39 7e3d 953a fd0f 93ba
000001b0: 09eb 00b9 78e8 29ba 7ef0 c4ba ee42 bdba
000001c0: dd42 c8ba d4bd 7bba dd54 d039 36c7 143a
000001d0: e087 c339 3ee6 e93a 3dbe 7c3a 4097 193a
000001e0: 02d2 fa39 06cf dbba 22dc 3a38 4433 893a
000001f0: d913 bcba fc10 40ba e133 93ba abb2 553a
00000200: 6b69 aaba 9919 ffba 738d 173a 199f 1e3a
00000210: 3317 0bb9 6f4e deba 59aa 6e39 41db dc38
00000220: 6db7 223a ce7b 2bbb cfe3 443b 1e83 ed3a
00000230: 66a4 df39 39f7 c639 014f a9b6 66e2 04ba
00000240: 611d 9aba 3c4b 683a 674e bc3a b3ca 9fba
00000250: 0fc0 13bb 23d5 023a 6b14 90b7 8535 df39
00000260: 9b2f 903a aafd e8b8 e5f1 2fb8 b02d b23a
00000270: c901 a5ba c58f c9b9 1d92 8aba 89e3 acba
00000280: 2afc 3cba 67d9 ebb9 7fcc 9239 84e4 a13a
00000290: d09b 2539 b23b b8ba bd06 d4b8 ae28 b7ba
000002a0: fe78 1fbb 1476 10ba 67ae 1c3a fd23 bab9
000002b0: 5783 e03a f312 52ba 3790 4cbb a0fa 96ba
000002c0: 2a7e 1ebb a20e 76b6 2f45 a0ba d352 48ba
000002d0: 6a59 333b 2179 d539 ab39 55b8 d5ad b9b9
000002e0: 6a41 41b9 784d 3fba fcb7 0bba 4a05 cc3a
000002f0: 301a d539 4168 c93a 2903 e33a d240 e9ba
00000300: 34cc dc3a 24c3 853a bb06 703a b451 803a
00000310: 0531 8f3a ce62 ae39 265b fd39 6ead 64ba
00000320: e0c1 f1b8 9a90 8a39 4d7f 053b 0973 91ba
00000330: 78af 263a b961 e4b9 c69e 67ba 3f3c 863a
00000340: 4faf 94b9 cbc2 a53a 1e32 1439 1097 07ba
00000350: caf6 3c3b 06e7 13ba af63 0939 09d2 a73a
00000360: 4570 bc38 ee7b 4c3a 0a8a 043b 8a19 d53a
00000370: 0cfe e33a bd8f 01b9 ecd5 de39 ab82 633a
00000380: 413f b839 702a b03a 8e84 3a3a 809b 88ba
00000390: d8c0 93b9 ce0c 9d39 9c37 8cb9 53b5 02bb
000003a0: 6388 0a3b 01f1 c13a 070b 9e39 5396 ddba
000003b0: c03b cdb9 e7bf 9a3a d2c2 ee39 88d3 87ba
000003c0: 1ad9 943a aa38 67ba 8ad1 b5b9 1456 e53a
000003d0: a642 823b a010 233a 5744 5c3a 6c12 8bb9
000003e0: 6e9d 7339 222e dd38 4bf4 e9ba 92f8 8639
000003f0: 9bce 343b 191f e63a adf5 383a cf8f dfb9

actor.mu.model.0.bias f4 [4]
0.0 0.0 0.0 0.0
00000000: 0000 0000 0000 0000 0000 0000 0000 0000

critic.preprocess.model.model.0.weight f4 [128, 39]
-0.00369847 0.1254927 0.18608852 -0.09126061 -0.06092377 0.13186404 0.17825866 0.12007826
0.1681219 0.09546982 0.03006615 0.10254973 -0.019541994 0.11558004 -0.16940555 0.11584958
-0.19801 -0.3201156 -0.11241731 0.09391351 -0.10938029 0.20163113 -0.022649406 -0.065866254
-0.07908827 0.053927787 -0.1447528 -0.1572596 0.16659273 0.12044637 -0.10772411 0.2039749
0.16161552 0.022993693 0.1567323 0.026835762 0.29497018 0.083332166 -0.025197033 -0.17568952
0.0086791795 -0.083216935 0.2506656 -0.03195414 0.22058192 -0.18726914 0.16381878 -0.3070059
-0.22776976 -0.19182406 -0.24434172 0.078416444 -0.0072091017 0.22717722 -0.2628738 0.041729208
0.047323756 -0.016822873 -0.24373 -0.06289407 -0.17151716 -0.0078308135 -0.05748401 0.080066346
0.082768336 0.09074043 -0.027722772 0.043069504 0.17106104 0.0084140245 0.0010419702 0.13724078
-0.06568011 -0.043452717 -0.066867195 0.13248974 0.08828232 0.10051141 -0.3109132 -0.09251292
-0.0018737185 0.0657168 0.05349716 0.09552897 -0.03188285 -0.0067973877 0.19041419 0.0032218588
-0.32199803 0.09814697 0.047874935 -0.114819594 0.08647832 -0.1707751 -0.05399191 -0.028067585
-0.17038037 0.007922434 0.20949617 -0.15162005 -0.017293192 -0.07932008 0.063185506 -0.1430455
-0.19423404 -0.037290595 -0.0052257325 -0.09350546 -0.17318572 0.07859556 0.09077643 -0.06996704
-0.0026831736 0.12071579 -0.031196954 0.020445876 -0.27717093 0.040336333 -0.24030872 -0.01160225
-0.20314083 -0.03109078 0.2639544 0.21999604 0.005339855 -0.023079937 0.028208593 -0.09685944
0.1307933 0.021300154 -0.19811702 -0.08073923 0.10112947 0.008809185 0.05210614 0.057711262
-0.0401998 0.0641142 -0.12651198 -0.11002873 0.19834314 0.12877724 -0.08816445 0.057035178
0.051711254 0.04766741 -0.017776897 -0.030413924 -0.032623142 -0.16641013 0.1649656 -0.09886948
0.05353425 -0.078198336 0.089939184 -0.11223849 -0.13201107 0.08458345 0.042792022 -0.14218535
0.105056785 0.11501157 0.055478144 0.018704837 -0.25709918 0.043303933 -0.035196036 -0.11349181
0.09865192 -0.14807889 0.18478073 -0.10237193 -0.06799375 0.17096578 -0.115750805 -0.036685005
0.09554629 0.10848252 0.21546789 0.14005044 -0.0027971088 -0.010182943 -0.16222541 -0.1258508
0.09446688 -0.13728647 0.08155218 0.09127943 0.11865406 -0.06672347 0.05274442 -0.009600907
-0.25580594 0.20627713 -0.05153151 0.10278281 -0.091708146 -0.1789298 -0.04943468 -0.24923079
-0.10094028 -0.024481708 0.05652969 0.10791344 -0.05769232 0.117579736 -0.02580201 -0.07954338
0.011391375 -0.09624926 -0.07807498 -0.14699554 -0.026819222 -0.13100092 -0.21218207 -0.034189057
-0.016807066 -0.19518644 -0.12512948 0.03461017 -0.34870428 -0.07750587 0.0674458 -0.066284
-0.11861857 0.03154464 0.11631586 -0.052649897 0.029366264 0.061176397 -0.03890535 0.0034891346
0.2161443 0.055129293 -0.07454721 -0.16047311 0.027677579 0.08970339 0.1310619 -0.15050106
-0.005334127 0.032560486 -0.04776095 -0.006533974 0.14740975 0.063597865 0.23636264 0.11656199
-0.02513653 -0.0457113 0.28233224 -0.10128428 -0.19474179 -0.1537574 -0.026173024 0.0443174
00000000: 0862 72bb 2981 003e fd8d 3e3e d8e6 babd
00000010: 348b 79bd 5e07 073e 7089 363e 97eb f53d
00000020: 2628 2c3e ae85 c33d 494d f63c 9805 d23d
00000030: 8816 a0bc 3ab5 ec3d a678 2dbe 8b42 ed3d
00000040: 22c3 4abe 31e6 a3be 0c3b e6bd ba55 c03d
00000050: c602 e0bd 6478 4e3e 3f8b b9bc e3e4 86bd
00000060: 08f9 a1bd 62e3 5c3d 143a 14be a908 21be
00000070: 4997 2a3e 96ac f63d 759e dcbd ccde 503e
00000080: 8a7e 253e 455d bc3c 6f7e 203e acd6 db3c
00000090: 5506 973e 0eaa aa3d 026a cebc f4e7 33be
000000a0: 1e33 0e3c a46d aabd 3e57 803e 58e2 02bd
000000b0: 3ae0 613e 7bc3 3fbe 1cc0 273e e12f 9dbe
000000c0: 7a3c 69be 876d 44be b734 7abe cd98 a03d
000000d0: 543a ecbb 25a1 683e 6597 86be 3fec 2a3d
000000e0: 8ed6 413d 1fd0 89bc 5b94 79be 9bce 80bd
000000f0: 32a2 2fbe d04c 00bc 5a74 6bbd d3f9 a33d
00000100: 7282 a93d 1ed6 b93d de1a e3bc a669 303d
00000110: a02a 2f3e fada 093c b892 883a d988 0c3e
00000120: 4b83 86bd 7afb 31bd abf1 88bd 64ab 073e
00000130: 5ccd b43d edd8 cd3d 0430 9fbe 6a77 bdbd
00000140: 8f97 f5ba 8896 863d d71f 5b3d b1a4 c33d
00000150: 9797 02bd 9fbc debb f0fb 423e d225 533b
00000160: eddc a4be 4701 c93d 8218 443d 8926 ebbd
00000170: 8c1b b13d abdf 2ebe 9f26 5dbd feed e5bc
00000180: 3178 2ebe 19cd 013c 2a86 563e 4942 1bbe
00000190: 74aa 8dbc 9172 a2bd 6767 813d 857a 12be
000001a0: 4ae5 46be 06be 18bd 9f3c abbb ca7f bfbd
000001b0: 9957 31be b5f6 a03d fee8 b93d e14a 8fbd
000001c0: 2fd8 2fbb d739 f73d c190 ffbc 1c7e a73c
000001d0: 59e9 8dbe b637 253d 7d13 76be 5d17 3ebc
000001e0: 2604 50be 17b2 febc 0825 873e a446 613e
000001f0: f3f9 ae3b 2312 bdbc b515 e73c 3e5e c6bd
00000200: aeee 053e a97d ae3c 30df 4abe 9c5a a5bd
00000210: f81c cf3d 6654 103c 3f6d 553d a562 6c3d
00000220: 8ca8 24bd 4e4e 833d 5b8c 01be be56 e1bd
00000230: 771a 4b3e 2ede 033e 908f b4bd b89d 693d
00000240: 2ecf 533d e73e 433d dba0 91bc 9f26 f9bc
00000250: d89f 05bd 6b67 2abe beec 283e 157c cabd
00000260: bb46 5b3d 7326 a0bd 0932 b83d 4bdd e5bd
00000270: e92d 07be 163a ad3d b046 2f3d 0999 11be
00000280: 0328 d73d 308b eb3d 0d3d 633d e33a 993c
00000290: 81a2 83be 775f 313d b829 10bd 656e e8bd
000002a0: 050a ca3d fea1 17be 2937 3d3e 60a8 d1bd
000002b0: 4f40 8bbd a711 2f3e c20e edbd 0443 16bd
000002c0: c6ad c33d 152c de3d 9da3 5c3e 6269 0f3e
000002d0: b34f 37bb 5cd6 26bc 6b1e 26be 08df 00be
000002e0: da77 c13d d394 0cbe d404 a73d b6f0 ba3d
000002f0: e600 f33d 51a6 88bd 880a 583d 1f4d 1dbc
00000300: fff8 82be 503a 533e b412 53bd cb7f d23d
00000310: 7bd1 bbbd 6039 37be 057c 4abd 5b36 7fbe
00000320: c7b9 cebd dd8d c8bc ad8b 673d b901 dd3d
00000330: c84e 6cbd a5cd f03d bd5e d3bc a4e7 a2bd
00000340: e4a2 3a3c 551e c5bd c6e5 9fbd 0086 16be
00000350: fcb3 dbbc 1b25 06be 4246 59be d309 0cbd
00000360: f9ae 89bc f4de 47be f121 00be 65c3 0d3d
00000370: 5e89 b2be 66bb 9ebd 0621 8a3d e8bf 87bd
00000380: 4bee f2bd f434 013d 0237 ee3d 6ba7 57bd
00000390: 8591 f03c 1a94 7a3d 375b 1fbd f7a9 643b
000003a0: ee54 5d3e 41cf 613d 35ac 98bd 1053 24be
000003b0: 17bc e23c 69b6 b73d 1735 063e f31c 1abe
000003c0: e7c9 aebb 255e 053d fca0 43bd f21a d6bb
000003d0: 95f2 163e 993f 823d 0c09 723e 0db8 ee3d
000003e0: 20eb cdbc c63b 3bbd da8d 903e 226e cfbd
000003f0: 646a 47be 9472 1dbe cf68 d6bc 2986 353d

critic.preprocess.model.model.0.bias f4 [128]
0.0 0.0 0.0 0.0 0.0 0.0 0.0 0.0
0.0 0.0 0.0 0.0 0.0 0.0 0.0 0.0
0.0 0.0 0.0 0.0 0.0 0.0 0.0 0.0
0.0 0.0 0.0 0.0 0.0 0.0 0.0 0.0
0.0 0.0 0.0 0.0 0.0 0.0 0.0 0.0
0.0 0.0 0.0 0.0 0.0 0.0 0.0 0.0
0.0 0.0 0.0 0.0 0.0 0.0 0.0 0.0
0.0 0.0 0.0 0.0 0.0 0.0 0.0 0.0
0.0 0.0 0.0 0.0 0.0 0.0 0.0 0.0
0.0 0.0 0.0 0.0 0.0 0.0 0.0 0.0
0.0 0.0 0.0 0.0 0.0 0.0 0.0 0.0
0.0 0.0 0.0 0.0 0.0 0.0 0.0 0.0
0.0 0.0 0.0 0.0 0.0 0.0 0.0 0.0
0.0 0.0 0.0 0.0 0.0 0.0 0.0 0.0
0.0 0.0 0.0 0.0 0.0 0.0 0.0 0.0
0.0 0.0 0.0 0.0 0.0 0.0 0.0 0.0
00000000: 0000 0000 0000 0000 0000 0000 0000 0000
00000010: 0000 0000 0000 0000 0000 0000 0000 0000
00000020: 0000 0000 0000 0000 0000 0000 0000 0000
00000030: 0000 0000 0000 0000 0000 0000 0000 0000
00000040: 0000 0000 0000 0000 0000 0000 0000 0000
00000050: 0000 0000 0000 0000 0000 0000 0000 0000
00000060: 0000 0000 0000 0000 0000 0000 0000 0000
00000070: 0000 0000 0000 0000 0000 0000 0000 0000
00000080: 0000 0000 0000 0000 0000 0000 0000 0000
00000090: 0000 0000 0000 0000 0000 0000 0000 0000
000000a0: 0000 0000 0000 0000 0000 0000 0000 0000
000000b0: 0000 0000 0000 0000 0000 0000 0000 0000
000000c0: 0000 0000 0000 0000 0000 0000 0000 0000
000000d0: 0000 0000 0000 0000 0000 0000 0000 0000
000000e0: 0000 0000 0000 0000 0000 0000 0000 0000
000000f0: 0000 0000 0000 0000 0000 0000 0000 0000
00000100: 0000 0000 0000 0000 0000 0000 0000 0000
00000110: 0000 0000 0000 0000 0000 0000 0000 0000
00000120: 0000 0000 0000 0000 0000 0000 0000 0000
00000130: 0000 0000 0000 0000 0000 0000 0000 0000
00000140: 0000 0000 0000 0000 0000 0000 0000 0000
00000150: 0000 0000 0000 0000 0000 0000 0000 0000
00000160: 0000 0000 0000 0000 0000 0000 0000 0000
00000170: 0000 0000 0000 0000 0000 0000 0000 0000
00000180: 0000 0000 0000 0000 0000 0000 0000 0000
00000190: 0000 0000 0000 0000 0000 0000 0000 0000
000001a0: 0000 0000 0000 0000 0000 0000 0000 0000
000001b0: 0000 0000 0000 0000 0000 0000 0000 0000
000001c0: 0000 0000 0000 0000 0000 0000 0000 0000
000001d0: 0000 0000 0000 0000 0000 0000 0000 0000
000001e0: 0000 0000 0000 0000 0000 0000 0000 0000
000001f0: 0000 0000 0000 0000 0000 0000 0000 0000

critic.preprocess.model.model.2.weight f4 [128, 128]
0.105869174 -0.04295193 0.0076690614 -0.046376675 -0.020442808 -0.21995416 0.09758615 -0.08334506
0.04611762 0.33002687 -0.06870665 -0.08609293 -0.048199892 -0.009517247 -0.21357885 -0.05534886
0.039473422 0.036407515 -0.0017387925 0.076012455 0.2234302 0.2885579 0.058469947 -0.017994266
-0.15656033 -0.19773164 0.015795492 0.14361574 0.13067013 0.26961374 -0.009617325 0.044123538
-0.007576288 0.16490309 -0.04390695 -0.12610225 -0.062023494 0.10714084 0.13747354 0.12949722
-0.097424306 0.06923619 0.25213522 0.031001315 0.048754588 -0.028900694 0.1147738 -0.054796338
0.09577617 0.04573982 0.14737253 -0.060902428 -0.09346491 -0.0056048017 -0.03347091 0.11545835
-0.01358779 0.01768266 0.10680986 -0.04541458 0.042178772 0.04726328 -0.1237152 -0.057097487
-0.14630428 -0.11854869 0.14492907 0.043826032 -0.10449988 -0.014819368 0.049557474 -0.12681288
0.02561797 -0.10890602 0.043146618 0.016779969 0.05283205 0.36181685 -0.13196279 0.024932776
-0.13048796 -0.04051823 -0.045414742 -0.14490066 0.15007083 -0.19022244 -0.06738103 0.06545808
0.34751803 -0.057002813 0.0045198044 -0.16255963 0.000868713 0.0904912 0.022004643 0.0074802614
-0.04082799 -0.091684744 0.1829149 -0.09509422 0.047603827 -0.06290335 -0.061298355 -0.15308145
-0.1577521 0.050828468 -0.2804112 0.07665676 0.0615649 -0.06791682 0.1648793 0.057178136
0.031360194 -0.09624324 0.17095613 0.20580542 -0.01471357 0.14062755 0.03322373 0.15563622
0.13686635 -0.015036118 0.13655058 0.16176958 -0.30068207 0.2081719 0.21048954 -0.062230423
0.10805417 -0.005720771 0.010672327 0.16820733 0.10417277 0.047491748 0.14312975 0.11952975
0.23299003 0.15711355 -0.27071956 -0.06610504 -0.0747619 0.20664436 0.115614854 0.1401327
-0.16919954 0.3679394 0.07242638 -0.17044516 0.24131553 0.18545833 0.047900494 0.07881406
-0.060668793 -0.0016895857 -0.039965536 0.101021245 -0.08329799 -0.008083508 0.100866646 -0.1474124
0.1035665 0.018579666 0.11502814 -0.09306699 -0.017014222 -0.029483637 -0.09755264 -0.16173944
-0.16225317 0.079838574 -0.010530155 0.011329737 -0.12506038 -0.21438935 -0.13307156 0.10129107
0.006850141 -0.05110672 0.12816854 -0.040980827 0.00065901736 0.13662487 0.13019907 -0.09516149
-0.0021486871 0.053911418 0.26268056 0.068482146 0.08276909 0.16698568 0.17104197 -0.06776909
0.05362908 0.07959832 -0.011110636 0.057740793 0.05858667 -0.089813784 0.21675786 0.084895015
0.15335934 -0.057952333 0.06907709 0.04216382 -0.018681725 0.10713726 -0.0756366 0.068692915
0.07096535 0.04503974 -0.07599158 0.1545846 0.04199297 0.08085197 -0.06364538 0.112760015
-0.106377915 -0.03940009 -0.038096014 -0.14998594 0.15738255 -0.13956603 -0.021898465 0.047593117
-0.07614343 -0.103415295 0.023926513 -0.16848032 -0.0014062902 -0.15277296 0.2578762 0.022851052
0.18516576 0.17538048 -0.10243447 -0.033031963 -0.16386862 0.11050485 0.1504213 -0.19339928
-0.18255024 0.008833032 -0.281897 -0.093310975 0.13583231 -0.028490812 -0.11683296 0.040248152
0.119613744 0.009448496 0.06050259 0.12642562 0.21640004 -0.2808887 -0.029252851 0.09685221
00000000: f0d1 d83d 5dee 2fbd c04c fb3b 78f5 3dbd
00000010: ad77 a7bc aa3b 61be 3fdb c73d d1b0 aabd
00000020: d4e5 3c3d 48f9 a83e 12b6 8cbd 7d51 b0bd
00000030: 406d 45bd 3aee 1bbc 6ab4 5abe 7cb5 62bd
00000040: e2ae 213d 0c20 153d 32e8 e3ba 6bac 9b3d
00000050: e3ca 643e dcbd 933e 2f7e 6f3d b668 93bc
00000060: 5a51 20be 2a7a 4abe 8c65 813c 0110 133e
00000070: 64ce 053e d00a 8a3e fc91 1dbc e2ba 343d
00000080: 8342 f8bb 5bdc 283e c6d7 33bd f320 01be
00000090: 590c 7ebd a86c db3d ddc5 0c3e eb9a 043e
000000a0: 6586 c7bd b4cb 8d3d de17 813e 78f6 fd3c
000000b0: e4b2 473d 26c1 ecbc 870e eb3d 2072 60bd
000000c0: 4c26 c43d ad59 3b3d d3e8 163e d374 79bd
000000d0: 886a bfbd 7ca8 b7bb cb18 09bd 6d75 ec3d
000000e0: 529f 5ebc 3adb 903c 21bf da3d a304 3abd
000000f0: a6c3 2c3d 2497 413d 655e fdbd 0edf 69bd
00000100: cad0 15be a8c9 f2bd 4968 143e ed82 333d
00000110: 0804 d6bd efcc 72bc c7fc 4a3d 3cdb 01be
00000120: c7dc d13c 1f0a dfbd 82ba 303d 2576 893c
00000130: 6b66 583d 0f40 b93e 4121 07be d23f cc3c
00000140: a39e 05be 72f6 25bd cf04 3abd d760 14be
00000150: 2bac 193e acc9 42be 11ff 89bd e30e 863d
00000160: e2ed b13e c87b 69bd de1a 943b 0876 26be
00000170: 58ba 633a 7353 b93d 1543 b43c fb1c f53b
00000180: 403b 27bd 36c5 bbbd 0b4e 3b3e c2c0 c2bd
00000190: 3bfc 423d 79d3 80bd fc13 7bbd 62c1 1cbe
000001a0: c489 21be 8331 503d 0f92 8fbe 38fe 9c3d
000001b0: 7a2b 7c3d f917 8bbd 1fd6 283e 9f33 6a3d
000001c0: 8c73 003d 2d1b c5bd 200f 2f3e a8be 523e
000001d0: 2f11 71bc ab00 103e 9b15 083d 1a5f 1f3e
000001e0: b126 0c3e 0d5a 76bc ead3 0b3e eda6 253e
000001f0: 00f3 99be 042b 553e 928a 573e 54e5 7ebd
00000200: 814b dd3d 4e75 bbbb fcda 2e3c 8b3e 2c3e
00000210: 8958 d53d b586 423d 9b90 123e 03cc f43d
00000220: f094 6e3e 60e2 203e c19b 8abe 1462 87bd
00000230: c41c 99bd 949a 533e 7bc7 ec3d f27e 0f3e
00000240: a542 2dbe 8e62 bc3e 4854 943d 2d89 2ebe
00000250: 6b1b 773e cae8 3d3e 4f33 443d 4469 a13d
00000260: d77f 78bd 1775 ddba e7b2 23bd 3ae4 ce3d
00000270: 2398 aabd b170 04bc 2c93 ce3d 47f3 16be
00000280: ac1a d43d 6234 983c e093 eb3d e899 bebd
00000290: 6961 8bbc ab87 f1bc aec9 c7bd 069f 25be
000002a0: b225 26be 6882 a33d ac86 2cbc 5ca0 393c
000002b0: d40f 00be e288 5bbe e943 08be b171 cf3d
000002c0: 2677 e03b 4855 51bd 9d3e 033e 83db 27bd
000002d0: e8c1 2c3a 64e7 0b3e e852 053e 07e4 c2bd
000002e0: fdd0 0cbb 38d2 5c3d 117e 863e 5e40 8c3d
000002f0: d782 a93d 4bfe 2a3e a025 2f3e 85ca 8abd
00000300: 2baa 5b3d 7204 a33d 6309 36bc 9c81 6c3d
00000310: 93f8 6f3d 4af0 b7bd c6f5 5d3e 70dd ad3d
00000320: 3b0a 1d3e 6d5f 6dbd 4a78 8d3d f8b3 2c3d
00000330: 6b0a 99bc c86a db3d 5de7 9abd dfae 8c3d
00000340: 4856 913d 977b 383d 79a1 9bbd 6d4b 1e3e
00000350: d200 2c3d b895 a53d 8258 82bd b9ee e63d
00000360: aadc d9bd fd61 21bd 910a 1cbd ea95 19be
00000370: e428 213e 66ea 0ebe 6964 b3bc 00f1 423d
00000380: 16f1 9bbd 66cb d3bd 8901 c43c 1b86 2cbe
00000390: 4553 b8ba 8470 1cbe 5908 843e 2132 bb3c
000003a0: 189c 3d3e f196 333e 2ac9 d1bd 864c 07bd
000003b0: 2dcd 27be 5e50 e23d 0b08 1a3e 760a 46be
000003c0: 73ee 3abe 6cb8 103c ce54 90be d319 bfbd
000003d0: a017 0b3e 9065 e9bc 1e46 efbd 3fdb 243d
000003e0: 0df8 f43d ddcd 1a3c 90d1 773d b875 013e
000003f0: f997 5d3e a5d0 8fbe ada3 efbc 745a c63d

critic.preprocess.model.model.2.bias f4 [128]
0.0 0.0 0.0 0.0 0.0 0.0 0.0 0.0
0.0 0.0 0.0 0.0 0.0 0.0 0.0 0.0
0.0 0.0 0.0 0.0 0.0 0.0 0.0 0.0
0.0 0.0 0.0 0.0 0.0 0.0 0.0 0.0
0.0 0.0 0.0 0.0 0.0 0.0 0.0 0.0
0.0 0.0 0.0 0.0 0.0 0.0 0.0 0.0
0.0 0.0 0.0 0.0 0.0 0.0 0.0 0.0
0.0 0.0 0.0 0.0 0.0 0.0 0.0 0.0
0.0 0.0 0.0 0.0 0.0 0.0 0.0 0.0
0.0 0.0 0.0 0.0 0.0 0.0 0.0 0.0
0.0 0.0 0.0 0.0 0.0 0.0 0.0 0.0
0.0 0.0 0.0 0.0 0.0 0.0 0.0 0.0
0.0 0.0 0.0 0.0 0.0 0.0 0.0 0.0
0.0 0.0 0.0 0.0 0.0 0.0 0.0 0.0
0.0 0.0 0.0 0.0 0.0 0.0 0.0 0.0
0.0 0.0 0.0 0.0 0.0 0.0 0.0 0.0
00000000: 0000 0000 0000 0000 0000 0000 0000 0000
00000010: 0000 0000 0000 0000 0000 0000 0000 0000
00000020: 0000 0000 0000 0000 0000 0000 0000 0000
00000030: 0000 0000 0000 0000 0000 0000 0000 0000
00000040: 0000 0000 0000 0000 0000 0000 0000 0000
00000050: 0000 0000 0000 0000 0000 0000 0000 0000
00000060: 0000 0000 0000 0000 0000 0000 0000 0000
00000070: 0000 0000 0000 0000 0000 0000 0000 0000
00000080: 0000 0000 0000 0000 0000 0000 0000 0000
00000090: 0000 0000 0000 0000 0000 0000 0000 0000
000000a0: 0000 0000 0000 0000 0000 0000 0000 0000
000000b0: 0000 0000 0000 0000 0000 0000 0000 0000
000000c0: 0000 0000 0000 0000 0000 0000 0000 0000
000000d0: 0000 0000 0000 0000 0000 0000 0000 0000
000000e0: 0000 0000 0000 0000 0000 0000 0000 0000
000000f0: 0000 0000 0000 0000 0000 0000 0000 0000
00000100: 0000 0000 0000 0000 0000 0000 0000 0000
00000110: 0000 0000 0000 0000 0000 0000 0000 0000
00000120: 0000 0000 0000 0000 0000 0000 0000 0000
00000130: 0000 0000 0000 0000 0000 0000 0000 0000
00000140: 0000 0000 0000 0000 0000 0000 0000 0000
00000150: 0000 0000 0000 0000 0000 0000 0000 0000
00000160: 0000 0000 0000 0000 0000 0000 0000 0000
00000170: 0000 0000 0000 0000 0000 0000 0000 0000
00000180: 0000 0000 0000 0000 0000 0000 0000 0000
00000190: 0000 0000 0000 0000 0000 0000 0000 0000
000001a0: 0000 0000 0000 0000 0000 0000 0000 0000
000001b0: 0000 0000 0000 0000 0000 0000 0000 0000
000001c0: 0000 0000 0000 0000 0000 0000 0000 0000
000001d0: 0000 0000 0000 0000 0000 0000 0000 0000
000001e0: 0000 0000 0000 0000 0000 0000 0000 0000
000001f0: 0000 0000 0000 0000 0000 0000 0000 0000

critic.last.model.0.weight f4 [1, 128]
0.10330951 -0.20035404 0.1383492 -0.162558 0.14084384 -0.10150964 0.22914118 0.04436397
-0.11567803 0.085575916 0.05006342 0.19998167 0.022293773 -0.05806246 0.17494129 -0.046663083
-0.15676704 0.09954675 -0.17036818 -0.08426671 -0.051332854 -0.06515971 -0.06380612 0.14475119
-0.06778472 0.06612182 -0.09052141 -0.25763497 -0.042649455 0.061195325 0.07928621 0.09586921
-0.0484293 -0.045985855 0.07945082 -0.054326445 -0.18820599 -0.066860504 -0.14662687 -0.20983514
0.044164777 0.122438245 0.16678384 0.10201371 -0.06832348 0.2756341 -0.14325589 -0.101983465
0.089260176 -0.20052065 0.09048587 -0.06756896 -0.14180072 -0.11093172 0.048742987 -0.06063171
-0.19183616 -0.17114669 -0.17506942 -0.0012033663 0.14047462 -0.056731816 -0.10748422 -0.017510535
0.023366718 0.040867534 -0.10249645 0.1673432 -0.1336038 -0.013930349 -0.1690167 0.11189078
0.08526023 -0.03498481 0.22037348 0.09939463 -0.09072766 -0.06252704 0.0934853 -0.006295569
0.014732131 -0.06286014 -0.07114986 -0.038045574 0.0678028 0.22233309 -0.033343468 -0.17959821
-0.10634393 0.050582677 -0.02175118 0.004454523 -0.06038804 0.01201654 -0.036982812 0.15216847
-0.21132377 0.14982337 0.16050634 -0.06604983 -0.060761202 0.12790337 0.32864907 0.0005313786
-0.039652396 0.03430766 0.14036757 0.017152103 -0.10359416 0.17998406 0.12869945 -0.06603982
-0.16108078 0.08169019 -0.05421821 -0.03173008 0.27898425 -0.0466315 0.08594343 -0.015747476
-0.20820731 -0.019198628 0.09490387 0.16650377 -0.14588836 -0.13875245 0.3291284 -0.0341011
00000000: f093 d33d 9c29 4dbe 6aab 0d3e 9b75 26be
00000010: 5e39 103e 49e4 cfbd fca3 6a3e ffb6 353d
00000020: 9ae8 ecbd 6d42 af3d 4d0f 4d3d ffc7 4c3e
00000030: 6ea1 b63c e7d2 6dbd cf23 333e ca21 3fbd
00000040: 8a87 20be 2bdf cb3d ff74 2ebe 0694 acbd
00000050: 6642 52bd 7472 85bd c8ac 82bd a839 143e
00000060: b7d2 8abd e06a 873d 4a63 b9bd bbe8 83be
00000070: 32b1 2ebd f3a7 7a3d cf60 a23d 1457 c43d
00000080: cd5d 46bd aa5b 3cbd 1db7 a23d 6885 5ebd
00000090: 12b9 40be 29ee 88bd 5b25 16be 06df 56be
000000a0: 20e6 343d e7c0 fa3d 62c9 2a3e 90ec d03d
000000b0: 2eed 8bbd ea1f 8d3e acb1 12be b5dc d0bd
000000c0: 0ace b63d 4955 4dbe a850 b93d 9861 8abd
000000d0: 3534 11be 2b30 e3bd baa6 473d f558 78bd
000000e0: b370 44be 1441 2fbe 6645 33be 46ba 9dba
000000f0: 94d8 0f3e 9f5f 68bd b020 dcbd 4172 8fbc
00000100: 8f6b bf3c b764 273d a9e9 d1bd 045c 2b3e
00000110: 6fcf 08be 1e3c 64bc b712 2dbe fe26 e53d
00000120: ea9c ae3d 3b4c 0fbd 96a9 613e 698f cb3d
00000130: 6ccf b9bd 2d0e 80bd 3975 bf3d 0f4b cebb
00000140: 095f 713c d1bc 80bd 05b7 91bd add5 1bbd
00000150: 32dc 8a3d 49ab 633e 2993 08bd 98e8 37be
00000160: d9ca d9bd c82f 4f3d 882f b2bc 3ff7 913b
00000170: 7359 77bd 06e1 443c 4a7b 17bd 0dd2 1b3e
00000180: 4265 58be 4c6b 193e c65b 243e 2245 87bd
00000190: bde0 78bd 1af9 023e b144 a83e 374c 0b3a
000001a0: 8d6a 22bd 3086 0c3d 84bc 0f3e 9182 8c3c
000001b0: 2d29 d4bd be4d 383e cac9 033e e33f 87bd
000001c0: 5cf2 24be 304d a73d ea13 5ebd 66f7 01bd
000001d0: 06d7 8e3e ac00 3fbd 1c03 b03d da00 81bc
000001e0: 4c34 55be 7146 9dbc f65c c23d f77f 2a3e
000001f0: c263 15be 1f15 0ebe 8583 a83e 98ad 0bbd

_actor_critic.actor.sigma_param f4 [4, 1]
-0.5 -0.5 -0.5 -0.5
00000000: 0000 00bf 0000 00bf 0000 00bf 0000 00bf

_actor_critic.actor.preprocess.model.model.0.weight f4 [128, 39]
-0.107661255 -0.31429783 -0.040219393 0.04924151 0.020368397 -0.017125793 -0.05732801 -0.11279566
-0.060674045 -0.22687623 0.13308427 -0.13592531 -0.15680999 -0.11960342 0.08540406 -0.025163688
-0.018411709 -0.11067879 -0.0066565545 0.1041219 0.0002485899 0.0074421256 0.23089392 -0.123770006
-0.2568466 -0.09209004 0.08405711 0.18206745 0.048492942 0.04534273 -0.017158706 0.0072965682
0.017292324 -0.15130538 0.06509802 -0.20934476 -0.02868652 -0.019158753 0.13209912 -0.19684371
-0.015353973 0.10533302 -0.0133132 -0.16910726 -0.17927597 0.123582095 0.24943902 -0.14121558
-0.16307144 0.02521561 0.09259295 0.21332593 -0.08024391 0.095692 -0.007957138 0.0727647
-0.058514096 -0.06475721 0.02296432 -0.0030061724 -0.3063124 0.117470555 -0.044685673 -0.17112856
-0.043181647 -0.03506517 0.04934094 -0.08085948 -0.08373068 0.094399855 0.15445969 0.03192093
0.22311601 -0.047415547 -0.16169688 0.03713885 -0.16710874 0.08235833 0.005881189 0.065110214
0.1854676 0.012680655 0.056552984 0.13052523 -0.11384423 -0.31037125 -0.070301615 -0.018053846
0.003990037 -0.042723663 -0.13417345 0.07619898 -0.17042062 -0.08821383 -0.19362181 -0.10969373
0.16746645 0.007677446 -0.16200736 -0.2324288 -0.08183768 0.1743021 -0.0833004 -0.045790274
0.21080197 0.16107632 0.16037734 0.032749202 -0.009887687 0.08119429 -0.13373147 -0.08170091
-0.06160538 0.049417675 0.05583808 -0.2916875 -0.4208342 -0.010235841 -0.06605361 -0.017671352
0.122338906 -0.14642106 0.16243836 -0.051184982 0.16780274 -0.041499626 0.16914319 0.0635685
-0.17047049 -0.0463117 -0.0008761449 -0.1496104 -0.1025721 0.08064137 -0.23947756 0.011993992
-0.28750753 -0.10316742 -0.026556212 -0.17801884 -0.054943632 -0.049936175 -0.045212436 -0.0564374
0.10361887 0.13768436 -0.018796613 -0.07681084 0.059587352 -0.14262724 0.22053888 0.05478957
-0.101348996 0.057619702 -0.048189174 -0.32571253 0.12266527 0.05767038 0.086362086 0.11386494
0.11243202 0.07955742 -0.1333953 0.25422332 0.039073344 -0.019494781 0.03380025 -0.11837311
-0.1887064 0.06634703 -0.11606832 -0.08376985 0.016225426 0.11520127 0.017486287 0.058726173
0.16479957 -0.13352963 0.096855834 0.29089555 -0.22046085 0.14957148 -0.20037374 -0.29192236
0.034150317 -0.1147994 0.07164205 0.07126027 -0.10051699 0.13737716 0.0144238705 -0.017441103
0.10720036 0.09516111 0.10446598 -0.11346127 0.044477742 0.11656787 -0.069999136 0.011906869
0.041861083 0.05049559 -0.06015199 -0.053487204 0.062498488 -0.012197896 0.096227795 0.007148729
0.25705856 0.071058 -0.20925467 0.1242677 -0.040236704 0.24578287 -0.13514072 0.25133303
-0.1564586 0.09571628 0.08188339 0.04109917 -0.06324994 0.14311813 0.008311585 0.079864666
0.04525188 0.07766239 0.028116807 -0.07375232 0.09106125 0.06871961 0.05066244 0.09159514
-0.135694 0.19745353 0.18350233 -0.2148351 0.092321135 -0.03171536 0.013175573 0.08008785
0.14692761 0.11461244 -0.19190837 -0.103578374 -0.16021842 0.18767509 -0.081607826 -0.04275707
0.013107516 0.041405804 -0.07559823 -0.02464618 -0.0358709 -0.0733972 -0.09813426 0.13750583
00000000: 817d dcbd a5eb a0be 17bd 24bd 77b1 493d
00000010: a0db a63c 644b 8cbc c7d0 6abd 6901 e7bd
00000020: 5985 78bd 3e52 68be 3e47 083e 0130 0bbe
00000030: cc92 20be a3f2 f4bd 53e8 ae3d 1424 cebc
00000040: 27d4 96bc 90ab e2bd 3a1f dabb dd3d d53d
00000050: 2c55 8239 13dd f33b 756f 6c3e 217b fdbd
00000060: 6681 83be b499 bcbd 2226 ac3d e46f 3a3e
00000070: 89a0 463d 4cb9 393d 6a90 8cbc 0d18 ef3b
00000080: a2a8 8d3c ccef 1abe 1c52 853d 795e 56be
00000090: feff eabc d1f2 9cbc fe44 073e 6691 49be
000000a0: 3b8f 7bbc d7b8 d73d 9c1f 5abc 742a 2dbe
000000b0: 1f94 37be 9c18 fd3d f16c 7f3e d19a 10be
000000c0: 33fc 26be f890 ce3c 5fa1 bd3d 1d72 5a3e
000000d0: eb56 a4bd 2bfa c33d a85e 02bc a905 953d
000000e0: 7aac 6fbd 6e9f 84bd ab1f bc3c 3403 45bb
000000f0: fbd4 9cbe 6794 f03d 5308 37bd 533c 2fbe
00000100: 3ddf 30bd 7fa0 0fbd ba19 4a3d a899 a5bd
00000110: fe7a abbd b654 c13d ae2a 1e3e 85bf 023d
00000120: 8678 643e ce36 42bd de93 25be e81e 183d
00000130: 8e1e 2bbe 7cab a83d fdb6 c03b 8158 853d
00000140: 38eb 3d3e 86c2 4f3c 1aa4 673d 68a8 053e
00000150: 2a27 e9bd fbe8 9ebe 4bfa 8fbd a9e5 93bc
00000160: dbbe 823b 02ff 2ebd c464 09be 360e 9c3d
00000170: be82 2ebe 74a9 b4bd cc44 46be 1ba7 e0bd
00000180: 537c 2b3e 1693 fb3b 42e5 25be d101 6ebe
00000190: 839a a7bd 407c 323e 6699 aabd 958e 3bbd
000001a0: 79dc 573e 31f1 243e f539 243e 0724 063d
000001b0: f7ff 21bc 3149 a63d e7f0 08be cf52 a7bd
000001c0: ec55 7cbd 306a 4a3d 78b6 643d 1058 95be
000001d0: 9577 d7be 3bb4 27bc 1d47 87bd 83c3 90bc
000001e0: d28c fa3d 67ef 15be 3e56 263e 58a7 51bd
000001f0: 7bd4 2b3e 83fb 29bd df33 2d3e 3430 823d
00000200: d18f 2ebe 56b1 3dbd 17ad 65ba 7833 19be
00000210: 5211 d2bd 4d27 a53d 9b39 75be 7382 443c
00000220: 3034 93be 7149 d3bd 6a8c d9bc 924a 36be
00000230: 930c 61bd e089 4cbd ad30 39bd e72a 67bd
00000240: 2136 d43d 21fd 0c3e 5bfb 99bc 004f 9dbd
00000250: de11 743d e00c 12be f2d4 613e 076b 603d
00000260: 1090 cfbd a302 6c3d 0362 45bd cbc3 a6be
00000270: ee37 fb3d c737 6c3d 9bde b03d 0632 e93d
00000280: c242 e63d 00ef a23d c798 08be 8f29 823e
00000290: 5f0b 203d 85b3 9fbc 2272 0a3d 9a6d f2bd
000002a0: 403c 41be f4e0 873d 3ab5 edbd 878f abbd
000002b0: 2feb 843c a5ee eb3d 673f 8f3c db8a 703d
000002c0: 38c1 283e febb 08be 5a5c c63d 43f0 943e
000002d0: 7dc0 61be 4429 193e c62e 4dbe d976 95be
000002e0: 34e1 0b3d f31b ebbd 11b9 923d e8f0 913d
000002f0: dadb cdbd 99ac 0c3e 1952 6c3c a5e0 8ebc
00000300: dd8b db3d d4e3 c23d 42f2 d53d 625e e8bd
00000310: 4b2e 363d 23bb ee3d b55b 8fbd 0715 433c
00000320: 8776 2b3d 77d4 4e3d ef61 76bd 6615 5bbd
00000330: 6afe 7f3d afd9 47bc 1413 c53d e33f ea3b
00000340: 2e9d 833e db86 913d db46 56be 1080 fe3d
00000350: 3ecf 24bd 81ae 7b3e 5462 0abe b9ae 803e
00000360: af36 20be e606 c43d 7bb2 a73d 9a57 283d
00000370: 2f89 81bd 8f8d 123e 502d 083c 1690 a33d
00000380: 095a 393d 760d 9f3d 3855 e63c 750b 97bd
00000390: 527e ba3d debc 8c3d 6b83 4f3d 3c96 bb3d
000003a0: 5ef3 0abe 4231 4a3e 09e8 3b3e bcfd 5bbe
000003b0: dd12 bd3d f7e7 01bd 5cde 573c 1905 a43d
000003c0: 3174 163e edb9 ea3d a183 44be e620 d4bd
000003d0: 4c10 24be e62d 403e 0122 a7bd 0a22 2fbd
000003e0: e8c0 563c 2299 293d 3fd3 9abd c9e6 c9bc
000003f0: 5ded 12bd 4551 96bd 9dfa c8bd 54ce 0c3e
